…
      "precision": 0.0,
      "recall": 0.0,
      "mAP50": 0.0,
      "ap": 0.0
    },
    "missing_tooth": {
      "class_id": 4,
      "precision": 0.0,
      "recall": 0.0,
      "mAP50": 0.0,
      "ap": 0.0
    },
    "filling_crown": {
      "class_id": 5,
      "precision": 0.0,
      "recall": 0.0,
      "mAP50": 0.0,
      "ap": 0.0
    },
    "ambiguous": {
      "class_id": 6,
      "precision": 0.0,
      "recall": 0.0,
      "mAP50": 0.0,
      "ap": 0.0
    }
  },
  "num_classes": 7,
  "model_type": "YOLO(\n  (model): DetectionModel(\n    (model): Sequential(\n      (0): Conv(\n        (conv): Conv2d(3, 16, kernel_size=(3, 3), stride=(2, 2), padding=(1, 1))\n        (act): SiLU(inplace=True)\n      )\n      (1): Conv(\n        (conv): Conv2d(16, 32, kernel_size=(3, 3), stride=(2, 2), padding=(1, 1))\n        (act): SiLU(inplace=True)\n      )\n      (2): C2f(\n        (cv1): Conv(\n          (conv): Conv2d(32, 32, kernel_size=(1, 1), stride=(1, 1))\n          (act): SiLU(inplace=True)\n        )\n        (cv2): Conv(\n          (conv): Conv2d(48, 32, kernel_size=(1, 1), stride=(1, 1))\n          (act): SiLU(inplace=True)\n        )\n        (m): ModuleList(\n          (0): Bottleneck(\n            (cv1): Conv(\n              (conv): Conv2d(16, 16, kernel_size=(3, 3), stride=(1, 1), padding=(1, 1))\n              (act): SiLU(inplace=True)\n            )\n            (cv2): Conv(\n              (conv): Conv2d(16, 16, kernel_size=(3, 3), stride=(1, 1), padding=(1, 1))\n              (act): SiLU(inplace=True)\n            )\n          )\n        )\n      )\n      (3): Conv(\n        (conv): Conv2d(32, 64, kernel_size=(3, 3), stride=(2, 2), padding=(1, 1))\n        (act): SiLU(inplace=True)\n      )\n      (4): C2f(\n        (cv1): Conv(\n          (conv): Conv2d(64, 64, kernel_size=(1, 1), stride=(1, 1))\n          (act): SiLU(inplace=True)\n        )\n        (cv2): Conv(\n          (conv): Conv2d(128, 64, kernel_size=(1, 1), stride=(1, 1))\n          (act): SiLU(inplace=True)\n        )\n        (m): ModuleList(\n          (0-1): 2 x Bottleneck(\n            (cv1): Conv(\n              (conv): Conv2d(32, 32, kernel_size=(3, 3), stride=(1, 1), padding=(1, 1))\n              (act): SiLU(inplace=True)\n            )\n            (cv2): Conv(\n              (conv): Conv2d(32, 32, kernel_size=(3, 3), stride=(1, 1), padding=(1, 1))\n              (act): SiLU(inplace=True)\n            )\n          )\n        )\n      )\n      (5): Conv(\n        (conv): Conv2d(64, 128, kernel_size=(3, 3), stride=(2, 2), padding=(1, 1))\n        (act): SiLU(inplace=True)\n      )\n      (6): C2f(\n        (cv1): Conv(\n          (conv): Conv2d(128, 128, kernel_size=(1, 1), stride=(1, 1))\n          (act): SiLU(inplace=True)\n        )\n        (cv2): Conv(\n          (conv): Conv2d(256, 128, kernel_size=(1, 1), stride=(1, 1))\n          (act): SiLU(inplace=True)\n        )\n        (m): ModuleList(\n          (0-1): 2 x Bottleneck(\n            (cv1): Conv(\n              (conv): Conv2d(64, 64, kernel_size=(3, 3), stride=(1, 1), padding=(1, 1))\n              (act): SiLU(inplace=True)\n            )\n            (cv2): Conv(\n              (conv): Conv2d(64, 64, kernel_size=(3, 3), stride=(1, 1), padding=(1, 1))\n              (act): SiLU(inplace=True)\n            )\n          )\n        )\n      )\n      (7): Conv(\n        (conv): Conv2d(128, 256, kernel_size=(3, 3), stride=(2, 2), padding=(1, 1))\n        (act): SiLU(inplace=True)\n      )\n      (8): C2f(\n        (cv1): Conv(\n          (conv): Conv2d(256, 256, kernel_size=(1, 1), stride=(1, 1))\n          (act): SiLU(inplace=True)\n        )\n        (cv2): Conv(\n          (conv): Conv2d(384, 256, kernel_size=(1, 1), stride=(1, 1))\n          (act): SiLU(inplace=True)\n        )\n        (m): ModuleList(\n          (0): Bottleneck(\n            (cv1): Conv(\n              (conv): Conv2d(128, 128, kernel_size=(3, 3), stride=(1, 1), padding=(1, 1))\n              (act): SiLU(inplace=True)\n            )\n            (cv2): Conv(\n              (conv): Conv2d(128, 128, kernel_size=(3, 3), stride=(1, 1), padding=(1, 1))\n              (act): SiLU(inplace=True)\n            )\n          )\n        )\n      )\n      (9): SPPF(\n        (cv1): Conv(\n          (conv): Conv2d(256, 128, kernel_size=(1, 1), stride=(1, 1))\n          (act): Identity()\n        )\n        (cv2): Conv(\n          (conv): Conv2d(512, 256, kernel_size=(1, 1), stride=(1, 1))\n          (act): SiLU(inplace=True)\n        )\n        (m): MaxPool2d(kernel_size=5, stride=1, padding=2, dilation=1, ceil_mode=False)\n      )\n      (10): Upsample(scale_factor=2.0, mode='nearest')\n      (11): Concat()\n      (12): C2f(\n        (cv1): Conv(\n          (conv): Conv2d(384, 128, kernel_size=(1, 1), stride=(1, 1))\n          (act): SiLU(inplace=True)\n        )\n        (cv2): Conv(\n          (conv): Conv2d(192, 128, kernel_size=(1, 1), stride=(1, 1))\n          (act): SiLU(inplace=True)\n        )\n        (m): ModuleList(\n          (0): Bottleneck(\n            (cv1): Conv(\n              (conv): Conv2d(64, 64, kernel_size=(3, 3), stride=(1, 1), padding=(1, 1))\n              (act): SiLU(inplace=True)\n            )\n            (cv2): Conv(\n              (conv): Conv2d(64, 64, kernel_size=(3, 3), stride=(1, 1), padding=(1, 1))\n              (act): SiLU(inplace=True)\n            )\n          )\n        )\n      )\n      (13): Upsample(scale_factor=2.0, mode='nearest')\n      (14): Concat()\n      (15): C2f(\n        (cv1): Conv(\n          (conv): Conv2d(192, 64, kernel_size=(1, 1), stride=(1, 1))\n          (act): SiLU(inplace=True)\n        )\n        (cv2): Conv(\n          (conv): Conv2d(96, 64, kernel_size=(1, 1), stride=(1, 1))\n          (act): SiLU(inplace=True)\n        )\n        (m): ModuleList(\n          (0): Bottleneck(\n            (cv1): Conv(\n              (conv): Conv2d(32, 32, kernel_size=(3, 3), stride=(1, 1), padding=(1, 1))\n              (act): SiLU(inplace=True)\n            )\n            (cv2): Conv(\n              (conv): Conv2d(32, 32, kernel_size=(3, 3), stride=(1, 1), padding=(1, 1))\n              (act): SiLU(inplace=True)\n            )\n          )\n        )\n      )\n      (16): Conv(\n        (conv): Conv2d(64, 64, kernel_size=(3, 3), stride=(2, 2), padding=(1, 1))\n        (act): SiLU(inplace=True)\n      )\n      (17): Concat()\n      (18): C2f(\n        (cv1): Conv(\n          (conv): Conv2d(192, 128, kernel_size=(1, 1), stride=(1, 1))\n          (act): SiLU(inplace=True)\n        )\n        (cv2): Conv(\n          (conv): Conv2d(192, 128, kernel_size=(1, 1), stride=(1, 1))\n          (act): SiLU(inplace=True)\n        )\n        (m): ModuleList(\n          (0): Bottleneck(\n            (cv1): Conv(\n              (conv): Conv2d(64, 64, kernel_size=(3, 3), stride=(1, 1), padding=(1, 1))\n              (act): SiLU(inplace=True)\n            )\n            (cv2): Conv(\n              (conv): Conv2d(64, 64, kernel_size=(3, 3), stride=(1, 1), padding=(1, 1))\n              (act): SiLU(inplace=True)\n            )\n          )\n        )\n      )\n      (19): Conv(\n        (conv): Conv2d(128, 128, kernel_size=(3, 3), stride=(2, 2), padding=(1, 1))\n        (act): SiLU(inplace=True)\n      )\n      (20): Concat()\n      (21): C2f(\n        (cv1): Conv(\n          (conv): Conv2d(384, 256, kernel_size=(1, 1), stride=(1, 1))\n          (act): SiLU(inplace=True)\n        )\n        (cv2): Conv(\n          (conv): Conv2d(384, 256, kernel_size=(1, 1), stride=(1, 1))\n          (act): SiLU(inplace=True)\n        )\n        (m): ModuleList(\n          (0): Bottleneck(\n            (cv1): Conv(\n              (conv): Conv2d(128, 128, kernel_size=(3, 3), stride=(1, 1), padding=(1, 1))\n              (act): SiLU(inplace=True)\n            )\n            (cv2): Conv(\n              (conv): Conv2d(128, 128, kernel_size=(3, 3), stride=(1, 1), padding=(1, 1))\n              (act): SiLU(inplace=True)\n            )\n          )\n        )\n      )\n      (22): Detect(\n        (cv2): ModuleList(\n          (0): Sequential(\n            (0): Conv(\n              (conv): Conv2d(64, 64, kernel_size=(3, 3), stride=(1, 1), padding=(1, 1))\n              (act): SiLU(inplace=True)\n            )\n            (1): Conv(\n              (conv): Conv2d(64, 64, kernel_size=(3, 3), stride=(1, 1), padding=(1, 1))\n              (act): SiLU(inplace=True)\n            )\n            (2): Conv2d(64, 64, kernel_size=(1, 1), stride=(1, 1))\n          )\n          (1): Sequential(\n            (0): Conv(\n              (conv): Conv2d(128, 64, kernel_size=(3, 3), stride=(1, 1), padding=(1, 1))\n              (act): SiLU(inplace=True)\n            )\n            (1): Conv(\n              (conv): Conv2d(64, 64, kernel_size=(3, 3), stride=(1, 1), padding=(1, 1))\n              (act): SiLU(inplace=True)\n            )\n            (2): Conv2d(64, 64, kernel_size=(1, 1), stride=(1, 1))\n          )\n          (2): Sequential(\n            (0): Conv(\n              (conv): Conv2d(256, 64, kernel_size=(3, 3), stride=(1, 1), padding=(1, 1))\n              (act): SiLU(inplace=True)\n            )\n            (1): Conv(\n              (conv): Conv2d(64, 64, kernel_size=(3, 3), stride=(1, 1), padding=(1, 1))\n              (act): SiLU(inplace=True)\n            )\n            (2): Conv2d(64, 64, kernel_size=(1, 1), stride=(1, 1))\n          )\n        )\n        (cv3): ModuleList(\n          (0): Sequential(\n            (0): Conv(\n              (conv): Conv2d(64, 64, kernel_size=(3, 3), stride=(1, 1), padding=(1, 1))\n              (act): SiLU(inplace=True)\n            )\n            (1): Conv(\n              (conv): Conv2d(64, 64, kernel_size=(3, 3), stride=(1, 1), padding=(1, 1))\n              (act): SiLU(inplace=True)\n            )\n            (2): Conv2d(64, 7, kernel_size=(1, 1), stride=(1, 1))\n          )\n          (1): Sequential(\n            (0): Conv(\n              (conv): Conv2d(128, 64, kernel_size=(3, 3), stride=(1, 1), padding=(1, 1))\n              (act): SiLU(inplace=True)\n            )\n            (1): Conv(\n              (conv): Conv2d(64, 64, kernel_size=(3, 3), stride=(1, 1), padding=(1, 1))\n              (act): SiLU(inplace=True)\n            )\n            (2): Conv2d(64, 7, kernel_size=(1, 1), stride=(1, 1))\n          )\n          (2): Sequential(\n            (0): Conv(\n              (conv): Conv2d(256, 64, kernel_size=(3, 3), stride=(1, 1), padding=(1, 1))\n              (act): SiLU(inplace=True)\n            )\n            (1): Conv(\n              (conv): Conv2d(64, 64, kernel_size=(3, 3), stride=(1, 1), padding=(1, 1))\n              (act): SiLU(inplace=True)\n            )\n            (2): Conv2d(64, 7, kernel_size=(1, 1), stride=(1, 1))\n          )\n        )\n        (dfl): DFL(\n          (conv): Conv2d(16, 1, kernel_size=(1, 1), stride=(1, 1), bias=False)\n        )\n      )\n    )\n  )\n)",
  "split": "val",
  "timestamp": "2026-04-24T06:15:20.839284",
  "data_yaml": "/Users/ankit/Desktop/DentalVision-QA/data/data.yaml"
}